Trained Model.pt (torch, 830354 bytes, 11 tensors)

encoder.0.weight f4 [128, 784]
00000000: 038e 2983 aeed 2a03 3966 2783 f012 2783
00000010: 2009 2703 4598 2783 6473 2903 bb48 2b03
00000020: f64f 2983 00e2 2803 fd4e 2903 5f4b 2903
00000030: 669b 2703 9964 2903 4595 2703 b802 2a03
00000040: d562 2703 b7f9 2a03 578a 2783 4075 2b83
00000050: 9264 2903 8778 2803 f313 2803 909b 2803
00000060: ca9e 2783 cfd6 2983 2a95 2983 0449 2903
00000070: f4b4 2783 9780 2a83 7bd4 2a83 731b 2783
00000080: e6ae 2a83 8a20 2a83 5fe0 2883 ed54 2883
00000090: 3e0c 2b03 493c 2b03 c72a 2b83 3412 2803
000000a0: 73c6 2883 3974 5403 6d6f 2803 05ac 2883
000000b0: a142 9ea7 daa5 94b6 ec73 2883 092f 2903
000000c0: 646a 2a03 af73 2803 2f9d 2703 5c71 2983
000000d0: 66a7 2b83 429f 2b03 3994 2783 4b5b 2703
000000e0: 2aa4 2983 8abf 2703 59f6 2903 9574 2b83
000000f0: 4c65 2a03 e124 2a03 c3d3 2a83 4d3d 2803
00000100: 74ee 2603 b16e 2883 4d1e 2783 220c c2a3
00000110: 5464 82b1 25ee c1b0 a40b 20b9 0b0b 41b9
00000120: 40b7 38bd 6314 8abe 76e1 7fbd 1046 5cbc
00000130: 8f0e 03b7 c7cb 2883 3593 2983 4388 2a03
00000140: c10b 2b03 d357 2a83 df62 2983 932a 2a83
00000150: 1025 2b03 0dbd 2783 6c48 2a83 0230 2903
00000160: 3a96 2883 9c7d 2783 d5af 2a83 b52e 2983
00000170: 2f15 2803 314a 2803 13c3 2783 3e7d 20b1
00000180: 84f3 d4b5 9574 8dbb c901 9fbc 5b52 81be
00000190: 623c 5ebf 5fec 99bf 4df3 86bf f319 ecbe
000001a0: 715a 95bd 3f21 0dbb 32cf fdb3 98b5 2883
000001b0: be60 2783 da6f 2a83 a127 2703 4c55 2803
000001c0: 33ae 2783 69a3 2803 ee6b 2b83 5cd2 2703
000001d0: 008f 2783 05f5 2803 4b98 2783 8de4 2883
000001e0: 1dea 2903 6f85 2803 40f1 2703 0d9e a7b0
000001f0: 103c bdb9 3693 e5bc 1e2f 0cbe 24de 5dbf
00000200: 2204 aebf f4b9 babf f323 8ebf 9585 0dbf
00000210: 3b27 dcbc 8d17 4bbb 21c6 38bb 996c 0cb4
00000220: 4419 2883 6938 2b83 ab53 2903 285c 2a03
00000230: 2445 2703 8635 2b83 4233 2703 e510 2783
00000240: 6a67 2b83 2db5 2903 cf0a 2b03 8400 2803
00000250: 73e6 2603 e881 2883 b3dd ea0a 5ca2 b8b6
00000260: e1eb 40bc 373b c7bd 9ab6 30bf 5c08 b0bf
00000270: 08d2 cdbf abb3 b1bf aa7b 57bf e488 92be
00000280: 4f59 94bc 0e3d 04b9 3dbd 24b8 1112 98b5
00000290: 5111 f9aa acb7 2803 5f0b 2883 60cb 2903
000002a0: 97f1 2883 55e5 2803 abdf 2883 1de7 2603
000002b0: 5eaf 2903 b84e 2a83 74eb 2903 1e60 2803
000002c0: b952 2783 c0a7 2883 ef98 81ab 8248 56ba
000002d0: bdb4 86bd 2bda aebe ed1c a0bf 52cc d8bf
000002e0: 3324 bbbf a12e 6abf 327f abbe 3c59 08bc
000002f0: 5931 8cb3 5a34 e485 ef14 d8ae 3e55 2b9f
00000300: 0f6c 2783 15a6 2a83 4ee0 2a03 6674 2a03
00000310: e088 2783 71da 2983 f943 2783 07c6 2a03
00000320: 1ea6 2783 c08d 2a03 0e0e 2983 6d94 2803
00000330: d83b 2703 bbab 2703 7cbb ffb0 4f0b b0bc
00000340: 520c 8dbe 57a2 91bf 5d6a d7bf 8743 d2bf
00000350: c1b1 8abf ce4b acbe b2a6 e3ba a743 01a1
00000360: a1ef 2683 a26d 2703 e130 4703 19c1 2783
00000370: 58b4 2803 6122 2983 153b 2903 cc6d 2a83
00000380: eb11 2783 6ea1 2b83 710f 2903 37b0 2783
00000390: be22 2b83 c28d 2803 445b 2b83 212b 2903
000003a0: a6a7 2803 2d05 2803 b28f 3eb7 7e20 c1bd
000003b0: 2b17 5bbf d2c6 cebf a643 debf a3d4 acbf
000003c0: ecf6 f4be e427 bebb 723b e491 6da6 2b83
000003d0: 1e70 2903 cda2 2883 bcbb 2703 0b2f 2983
000003e0: 8759 2703 d305 2a83 7da5 2a03 1e5e 2883
000003f0: cc99 2883 c26d 2b83 f295 2883 6181 2a83
-4.982766e-37 5.0231353e-37 -4.9194235e-37 -4.909863e-37 4.9087364e-37 -4.9251686e-37 4.97971e-37 5.0335874e-37
-4.9756427e-37 4.96302e-37 4.975531e-37 4.975116e-37 4.925528e-37 4.9780117e-37 4.924824e-37 4.996163e-37
4.9190343e-37 5.024517e-37 -4.9235695e-37 -5.038698e-37 4.9780085e-37 4.950912e-37 4.9393663e-37 4.954934e-37
-4.925917e-37 -4.9911224e-37 -4.983587e-37 4.9748454e-37 -4.9284613e-37 -5.0106124e-37 -5.0202426e-37 -4.91084e-37
-5.0159283e-37 -4.9995863e-37 -4.962833e-37 -4.9468253e-37 5.0266437e-37 5.0321587e-37 -5.030149e-37 4.939166e-37
-4.959857e-37 6.2434618e-37 4.9498673e-37 -4.956823e-37 -4.392605e-15 -4.4300514e-06 -4.9503835e-37 4.971863e-37
5.008064e-37 4.950356e-37 4.9257327e-37 -4.9794767e-37 -5.0444547e-37 5.0435203e-37 -4.924704e-37 4.918169e-37
-4.9853087e-37 4.9296765e-37 4.994743e-37 -5.0386213e-37 5.0074793e-37 5.0000845e-37 -5.02016e-37 4.9441133e-37
4.9056746e-37 -4.949783e-37 -4.9111673e-37 -2.103866e-17 -3.794904e-09 -1.4110283e-09 -0.00015263126 -0.00018410028
-0.045096636 -0.2696868 -0.062470876 -0.013444439 -7.811598e-06 -4.9604688e-37 -4.983362e-37 5.011493e-37
5.0265876e-37 -5.0059327e-37 -4.9778135e-37 -5.0007383e-37 5.029493e-37 -4.929391e-37 -5.0041646e-37 4.9719747e-37
-4.9543214e-37 -4.922108e-37 -5.0160355e-37 -4.9718253e-37 4.939508e-37 4.945593e-37 -4.9300823e-37 -2.3354256e-09
-1.5866103e-06 -0.004316876 -0.01941003 -0.25258145 -0.86810887 -1.202526 -1.0543 -0.46113548
-0.07292641 -0.0021534709 -1.1818919e-07 -4.957922e-37 -4.9187944e-37 -5.008691e-37 4.912238e-37 4.946868e-37
-4.927686e-37 4.955835e-37 -5.037628e-37 4.931837e-37 -4.9241045e-37 4.965203e-37 -4.9251713e-37 -4.9633126e-37
4.9933385e-37 4.9523937e-37 4.935383e-37 -1.219577e-09 -0.0003609364 -0.028024297 -0.13689849 -0.86667085
-1.3595011 -1.4587998 -1.1104721 -0.55281955 -0.026874175 -0.003098938 -0.0028194266 -1.3078024e-07
-4.9399766e-37 -5.031714e-37 4.9760682e-37 5.00643e-37 4.915626e-37 -5.0313825e-37 4.913573e-37 -4.9096283e-37
-5.0371097e-37 4.9872616e-37 5.026479e-37 4.9371355e-37 4.904756e-37 -4.951989e-37 2.2616774e-32 -5.5025284e-06
-0.011774988 -0.09728091 -0.6902863 -1.3752551 -1.6079721 -1.3882955 -0.8417307 -0.28620064
-0.018108992 -0.00012611246 -3.927689e-05 -1.133014e-06 -4.42433e-13 4.9581608e-37 -4.9383816e-37 4.98981e-37
-4.9648094e-37 4.9634023e-37 -4.962752e-37 4.904832e-37 4.986595e-37 -5.0048875e-37 4.9934923e-37 4.94811e-37
-4.917185e-37 -4.956333e-37 -9.208449e-13 -0.00081742567 -0.06577442 -0.34150824 -1.2508827 -1.6937354
-1.4620422 -0.914774 -0.3349548 -0.008322056 -6.528234e-08 -2.1460248e-35 -9.826261e-11 -3.628117e-20
-4.9200934e-37 -5.0149163e-37 5.0216e-37 5.009213e-37 -4.9234014e-37 -4.9915395e-37 -4.915492e-37 5.0185834e-37
-4.9267582e-37 5.012123e-37 -4.968077e-37 4.9541147e-37 4.9145586e-37 4.9274026e-37 -1.8606978e-09 -0.021489767
-0.27548462 -1.1377667 -1.6829334 -1.6426858 -1.0835496 -0.33651584 -0.0017368405 -4.3796437e-19
-4.9058096e-37 4.920274e-37 5.8536954e-37 -4.9298554e-37 4.9577787e-37 -4.97041e-37 4.973246e-37 -5.008455e-37
-4.909746e-37 -5.0437696e-37 4.968236e-37 -4.9279174e-37 -5.0292266e-37 4.9533493e-37 -5.035715e-37 4.9714146e-37
4.9563214e-37 4.9376704e-37 -1.1358339e-05 -0.094300255 -0.85582227 -1.6154425 -1.7364395 -1.3502392
-0.47844636 -0.005803095 -3.6008693e-28 -5.044343e-37 4.979334e-37 -4.955765e-37 4.9292398e-37 -4.971864e-37
4.917966e-37 -4.9965196e-37 5.014848e-37 -4.9478804e-37 -4.9547313e-37 -5.037838e-37 -4.954289e-37 -5.010703e-37

encoder.0.bias f4 [128]
00000000: 3abc 04c0 6e4a 31a6 a017 f3bd 3b48 c7ae
00000010: 669a 21c0 ec7e 159e dd34 b3bb 0021 eea4
00000020: 604e 3ebf 6709 ad84 0dfd 508f c531 14ad
00000030: 3103 17be be38 26a9 31dc bfbf e6e8 7cae
00000040: e9e8 2f93 b7e1 3c41 d7b6 b2bf d9dd f7a1
00000050: 567f 3dba ca93 debf 2a26 91bf 592e 13c0
00000060: cdc2 cdbb ffe7 6b8e b830 acbc 86e1 8bbf
00000070: d24d 81bf 7872 93be 4c9f 25a1 dbe3 c5bf
00000080: 1579 65c0 e257 98bd 9627 5fba 8b7a 149f
00000090: 59d6 3ca6 c248 91a9 10a3 71af b88d 56bf
000000a0: f98c 19bf e127 dfbe bd73 aeb5 2e6a ebbf
000000b0: b224 7bbf 1e5c 2ec0 b8b2 70be fabd f5ad
000000c0: 079d 17a2 a0dd e0be 834e 9fa5 7bed a1bd
000000d0: 1cc5 78bf 4472 0540 0c44 9a40 c75c bcaf
000000e0: a419 2eb9 f396 66ba 4b30 f5bf 0315 3ebf
000000f0: 27e7 cf8d 02b3 9bbe d86a a9b6 af8b 73ab
00000100: fb4b aaba 6d8f 32c0 e228 9dbe 386f e2bf
00000110: a164 d0a8 d477 80be 41e1 03ac e0b5 adae
00000120: 4a70 1fae dcaa aabd 095b 3dc0 36c0 90bf
00000130: 8b6a 22b3 72b6 23c0 cc10 2dbf c022 68a8
00000140: d2ad 01bd e3f9 36bf adc6 5ac0 1960 7594
00000150: de7a 09a3 3c34 2883 5df8 cab3 841a 05ba
00000160: 4943 04be ad61 9db7 b237 14b4 1285 1ebc
00000170: 7230 13be 8e56 66ab fa5b 17c0 9137 cabe
00000180: 92f2 a2b0 18fc 17c0 cf4c 27b0 2735 608d
00000190: 9ba6 e9b9 f687 92b1 aede 58b2 5e0b 78be
000001a0: 29b2 dfbf d0af efbf b991 1ec0 81fb 9cb3
000001b0: cd85 acbf d4cc 03af 017a 8dbe 1d64 98bf
000001c0: bf29 67bd 4108 49ab 9af3 e5ae 070c 3dbd
000001d0: 9b04 20c0 1a0a a795 5f2a b9b0 1315 7abc
000001e0: 50ba 15ad 3e71 1ebd 2a6d b9ae 0c76 08bd
000001f0: 445c 03bf 4345 c8aa 4975 4fa6 a39f 74bf
-2.0739884 -6.151008e-16 -0.118697405 -9.062303e-11 -2.5250487 -7.914241e-21 -0.0054689483 -1.0327195e-16
-0.7433834 -4.068074e-36 -1.03039276e-29 -8.423877e-12 -0.14747311 -3.690862e-14 -1.4989072 -5.750502e-11
-2.2202939e-27 11.805106 -1.3962048 -1.6796094e-18 -0.00072287524 -1.7388852 -1.1339772 -2.2997038
-0.0062793256 -2.9077688e-30 -0.021019325 -1.0928199 -1.0101874 -0.2879827 -5.6115e-19 -1.5460161
-3.5855153 -0.07438637 -0.00085126737 -3.1441584e-20 -6.55161e-16 -6.451915e-14 -2.1976754e-10 -0.83809996
-0.5998073 -0.43585113 -1.2997695e-06 -1.8391778 -0.9810287 -2.7243724 -0.23505676 -2.7937642e-11
-2.0547446e-18 -0.43919086 -2.7635305e-16 -0.07906624 -0.97175765 2.0850992 4.8208065 -3.4262923e-10
-0.00016603485 -0.0008796297 -1.9155363 -0.7425081 -1.2813008e-30 -0.3041001 -5.0490307e-06 -8.652479e-13
-0.0012992615 -2.790004 -0.30695254 -1.7690191 -2.313628e-14 -0.25091422 -1.874126e-12 -7.899437e-11
-3.6252147e-11 -0.0833337 -2.9586813 -1.1308658 -3.7815465e-08 -2.5580106 -0.67603755 -1.2886122e-14
-0.03165991 -0.71475047 -3.4183762 -1.2388291e-26 -7.452803e-18 -4.9430725e-37 -9.451535e-08 -0.00050774985
-0.12916292 -1.8761342e-05 -1.3803836e-07 -0.009675281 -0.14373949 -8.1832533e-13 -2.3649888 -0.3949552
-1.1855994e-09 -2.3747616 -6.08634e-10 -6.908931e-31 -0.00044565354 -4.264616e-09 -1.2623486e-08 -0.24223086
-1.7476245 -1.8725529 -2.4776442 -7.3100644e-08 -1.3478333 -1.198715e-10 -0.27632144 -1.1905552
-0.056436297 -7.1421e-13 -1.0456987e-10 -0.04615405 -2.500281 -6.74667e-26 -1.3472564e-09 -0.015263814
-8.511039e-12 -0.038682215 -8.4322174e-11 -0.033315703 -0.5131266 -3.5575197e-13 -7.1976503e-16 -0.95556086

encoder.2.weight f4 [18, 128]
00000000: 641b 2703 d219 2883 d2f0 2603 6123 2883
00000010: d7d1 2a83 1221 2803 f937 2703 b457 2803
00000020: 8f9c 2783 685c 2703 65c5 2883 0da3 2783
00000030: d1be 2803 420b 2803 e519 2783 65bb 2883
00000040: b496 2703 b495 8dc0 762f 2703 fb43 2703
00000050: 647c 2803 0549 2803 81ad 2783 f5fa 2683
00000060: c7ed 2783 f156 2883 61be 2703 7951 2703
00000070: b6be 2703 00e9 2683 163e 2703 1ed8 2703
00000080: aba7 2983 a641 2783 2a31 2883 019f 2703
00000090: 08e8 2683 a901 2903 7197 2783 73fc 2783
000000a0: 7c3f 2803 fe92 2783 412f 2803 2a58 2803
000000b0: c922 2b03 7516 2803 9680 2b03 a61a 2883
000000c0: 10d4 2903 6b61 2903 910d 2783 d5a1 2703
000000d0: 04a6 2703 8950 79be 15b7 27c0 87db 2783
000000e0: aee7 2903 76c4 3883 b192 2703 caeb 2703
000000f0: 93e9 2603 5f56 2a03 fa7f 2a83 89fe 2903
00000100: 1b1b 2703 c9a8 2883 b919 2703 0f4d 2a83
00000110: c323 2903 355a 2803 be2d 2703 f2fd 4c83
00000120: 7613 2803 85e5 dfa9 4c69 2783 cc77 2803
00000130: 984b 2703 65da 2703 a4f9 2703 2110 2903
00000140: 06f4 2703 c8ad 2783 0048 2783 d936 2703
00000150: 9545 2803 545b 2783 888b 2d83 d841 4903
00000160: bd5d 2a03 dadf 2783 d672 85af 850b 2803
00000170: 98bd 2783 c599 2883 78a3 2703 4c3f 2903
00000180: 44f0 2703 7289 2983 023f 2703 7044 2803
00000190: e5bd 2983 bf7c 2703 b3c4 2703 651f 2a03
000001a0: 2740 2803 e9fd 2703 73df 2703 e5de 2903
000001b0: 1c8d 2703 9737 2803 6e95 2903 4f51 2903
000001c0: 4e43 2703 ef02 2703 bc7b 2803 322e 2703
000001d0: 55f3 2703 0995 2783 b010 2783 7977 2703
000001e0: 38e2 2703 d955 2803 0a76 2883 7c4e 2a83
000001f0: 40f9 2703 7cc8 2783 1b4b 2703 a87a 2a83
00000200: 5547 91aa d3fb 1ab5 7a16 3cb0 7fdb 2803
00000210: 5b86 2783 11cf b6b2 6ee4 2703 d980 2903
00000220: 85ad 939f 4aa9 bbb2 2fce 2783 670b 83b4
00000230: ea66 2903 9360 eeb2 094a daa8 2a8b 2703
00000240: 5037 36b2 81fa 3fbf 50b4 24a8 f2bc 6cb1
00000250: 9211 2783 bb6e 2983 a463 2703 b1e7 2603
00000260: ba06 2a03 4231 2903 18e4 ddaa 2ea8 abab
00000270: e509 2a83 735f 2783 649a 2983 5967 12ad
00000280: 9021 2783 c887 2883 f00e 2783 341c 4483
00000290: cc56 a6b4 01ae 2703 8b00 2803 d3e4 2a83
000002a0: db7d 2803 3751 ce94 4ca0 f9ac a660 e0ac
000002b0: fbdb 2803 d0ec b5b1 d710 2783 9f51 0a02
000002c0: 88b9 2803 2c32 2983 791a 2903 6874 ccb1
000002d0: b0c4 76ac 1fa2 f99f fb09 1abc 92d8 37b4
000002e0: 7d66 2883 6a17 2883 6b04 1aab 7d3e c7af
000002f0: 834d 2783 568c 2983 b1d2 2783 a075 2703
00000300: 35c5 2803 43a4 2783 f35f 2783 56f5 2883
00000310: a491 2a83 3a3c 77b0 c62d 29b0 f5b4 3cb4
00000320: 66d6 39b3 2ab0 ac9c 6b34 81b4 53bc 2783
00000330: 5b03 2903 8d3c 2703 8ccf 2783 c079 2883
00000340: 9bc2 01a6 3989 2783 204a d4b4 61aa 33b3
00000350: a6f5 87b3 31f9 2783 1e3a 2903 b3e3 2883
00000360: 7217 2883 2516 2983 fc30 30bd 2644 81a7
00000370: 2d70 2783 60e5 2a03 6194 2703 3aae 2783
00000380: 3627 c8b2 ac9b 2883 f76c 2883 ae74 42b3
00000390: 5578 2803 ca4d 3ba5 4762 06ad 6e73 2803
000003a0: be6d 2703 d96a f0ac 4490 0bae 451a 2803
000003b0: 7282 70b1 62be 5cb4 d65f 2903 8cf8 2603
000003c0: b5da 01a5 71bb 52b3 fbfa 2683 640b 1db0
000003d0: 86e8 2703 cdca ec83 e9e8 e9b4 cb74 2883
000003e0: 4d2d fdb3 ddc9 2703 09a4 2883 f13f 2783
000003f0: 7786 5ab0 ab5f 85b4 bda2 8bb3 5b97 2783
4.910833e-37 -4.9400403e-37 4.9059464e-37 -4.9411376e-37 -5.0199394e-37 4.9408726e-37 4.9141143e-37 4.947144e-37
-4.925661e-37 4.9182966e-37 -4.959736e-37 -4.9264062e-37 4.958981e-37 4.9383686e-37 -4.9106615e-37 -4.958588e-37
4.924989e-37 -4.4245243 4.913137e-37 4.9154927e-37 4.9513556e-37 4.9454585e-37 -4.927606e-37 -4.90711e-37
-4.9349844e-37 -4.9470567e-37 4.9295433e-37 4.9170415e-37 4.9295815e-37 -4.9050486e-37 4.914816e-37 4.932498e-37
-4.985711e-37 -4.915225e-37 -4.94272e-37 4.9259417e-37 -4.9049374e-37 4.966654e-37 -4.9250735e-37 -4.9366687e-37
4.944364e-37 -4.924563e-37 4.9425008e-37 4.947197e-37 5.0292315e-37 4.939654e-37 5.0399993e-37 -4.9401354e-37
4.990807e-37 4.9776467e-37 -4.9092463e-37 4.9262663e-37 4.9267466e-37 -0.24347128 -2.6205494 -4.9328894e-37
4.993059e-37 -5.4298266e-37 4.9245283e-37 4.934756e-37 4.9051146e-37 5.005766e-37 -5.010542e-37 4.995683e-37
4.9108005e-37 -4.956452e-37 4.9106417e-37 -5.004697e-37 4.970569e-37 4.9474315e-37 4.91294e-37 -6.0241727e-37
4.9393103e-37 -9.943005e-14 -4.9197764e-37 4.9508283e-37 4.9163667e-37 4.9327594e-37 4.9363463e-37 4.968315e-37
4.9357014e-37 -4.927638e-37 -4.915954e-37 4.913985e-37 4.945064e-37 -4.918173e-37 -5.1000305e-37 5.9144176e-37
5.0066116e-37 -4.933386e-37 -2.4274155e-10 4.9383987e-37 -4.929453e-37 -4.954728e-37 4.926454e-37 4.9737298e-37
4.93527e-37 -4.9822416e-37 4.914922e-37 4.9449325e-37 -4.9882625e-37 4.922009e-37 4.930269e-37 4.999455e-37
4.9444406e-37 4.9368364e-37 4.9333396e-37 4.9920507e-37 4.9238875e-37 4.9434577e-37 4.9836173e-37 4.9757974e-37
4.915415e-37 4.9080257e-37 4.9512803e-37 4.912992e-37 4.935622e-37 -4.9247973e-37 -4.9096045e-37 4.9214037e-37
4.9336576e-37 4.946931e-37 -4.9506265e-37 -5.0048606e-37 4.9363014e-37 -4.9307034e-37 4.9163106e-37 -5.0099312e-37
-2.580667e-13 -5.7735923e-07 -6.842594e-10 4.962273e-37 -4.923112e-37 -2.1281751e-08 4.9339114e-37 4.9812546e-37
-6.2543986e-20 -2.1846649e-08 -4.9313576e-37 -2.4408948e-07 4.9782776e-37 -2.7750763e-08 -2.423497e-14 4.923664e-37
-1.0606371e-08 -0.74991614 -9.142928e-15 -3.4449923e-09 -4.909706e-37 -4.979175e-37 4.919127e-37 4.9048984e-37
4.996623e-37 4.972118e-37 -3.9415758e-13 -1.219696e-12 -4.996987e-37 -4.918646e-37 -4.984187e-37 -8.322087e-12
-4.9115417e-37 -4.952663e-37 -4.9094037e-37 -5.76316e-37 -3.0983063e-07 4.9276636e-37 4.9371386e-37 -5.0221187e-37
4.9515238e-37 -2.0832718e-26 -7.094802e-12 -6.377193e-12 4.962329e-37 -5.2947158e-09 -4.909622e-37 1.0162063e-37
4.958374e-37 -4.972223e-37 4.9695025e-37 -5.9504153e-09 -3.5067886e-12 -1.0572381e-19 -0.009401794 -1.7121991e-07
-4.9488414e-37 -4.939764e-37 -5.471792e-13 -3.624229e-10 -4.916587e-37 -4.9825734e-37 -4.931875e-37 4.9211916e-37
4.9597145e-37 -4.9265452e-37 -4.9187033e-37 -4.9652395e-37 -5.0125697e-37 -8.9943664e-10 -6.154689e-10 -1.7574696e-07
-4.3268663e-08 -1.1427543e-21 -2.4066262e-07 -4.9293075e-37 4.966849e-37 4.91464e-37 -4.931514e-37 -4.9510525e-37
-4.5019605e-16 -4.9234413e-37 -3.954201e-07 -4.1831644e-08 -6.3311106e-08 -4.9362947e-37 4.973135e-37 -4.963215e-37
-4.9397677e-37 -4.9690057e-37 -0.043015465 -3.587858e-15 -4.920566e-37 5.022182e-37 4.924722e-37 -4.927689e-37
-2.3300895e-08 -4.9549465e-37 -4.949585e-37 -4.5275264e-08 4.9508897e-37 -1.624602e-16 -7.63884e-12 4.950327e-37
4.9202867e-37 -6.8330727e-12 -3.1733075e-11 4.940092e-37 -3.4998746e-09 -2.0558358e-07 4.977465e-37 4.9068333e-37
-1.1263067e-16 -4.9064912e-08 -4.9071127e-37 -5.7132454e-10 4.9343813e-37 -1.3917394e-36 -4.3569096e-07 -4.9504834e-37
-1.1789471e-07 4.9308617e-37 -4.9559066e-37 -4.915029e-37 -7.9499024e-10 -2.4842788e-07 -6.502294e-08 -4.9250637e-37

encoder.2.bias f4 [18]
00000000: ef64 64c0 7fad a5b9 7997 49be 5cf7 72af
00000010: 136a 9fbe 0338 2ac0 b0e1 4ac0 44fc 26be
00000020: f4e8 7aae cdf3 a8ad 86ad 04c0 d446 34bf
00000030: 5b13 4dc0 3a9a fbbf cc9b 333e e704 05be
00000040: ffa9 24be ad7a 42be
-3.5686605 -0.00031600517 -0.19686688 -2.2097651e-10 -0.31135616 -2.6596687 -3.1700249 -0.16307169
-5.7050323e-11 -1.9207658e-11 -2.073091 -0.70420575 -3.2043064 -1.9656441 0.175399 -0.12990151
-0.16080473 -0.1899211

encoder.4.weight f4 [1, 18]
00000000: 4338 073f 4495 7a3b 44e2 7b32 168d 8e38
00000010: e2f0 893e 0a63 7e3d af32 623f a7e0 473e
00000020: e1fe cfb6 0f56 2883 4b4d 99bf b97d ad3c
00000030: 1635 5abf be3a ff3f a054 6d3e 36e1 64bf
00000040: 11bc 1e3e d0ad df3d
0.52820224 0.0038235942 1.466157e-08 6.797367e-05 0.26941592 0.06210617 0.8835859 0.19519292
-6.1987525e-06 -4.9469553e-37 -1.1976713 0.021178113 -0.8523725 1.9939802 0.23176813 -0.89406145
0.15501429 0.10921824

decoder.0.weight f4 [18, 1]
00000000: 48e4 c3bf a925 a3be 0eef 17c0 42a3 bcbf
00000010: 849e febe 581d 6dbe 8dcd d1bf c5ac 3fc0
00000020: 518e 37c0 d609 34c0 b4e4 2dbf 1d3a 15c0
00000030: d8fa 5ac0 7210 33c0 4d22 31c0 8b99 0dc0
00000040: 48f5 29c0 9fc8 2ec0
-1.5304041 -0.3186467 -2.3739657 -1.4737322 -0.49730313 -0.23155725 -1.6390854 -2.99492
-2.8680613 -2.8131003 -0.679271 -2.331672 -3.4215603 -2.7978787 -2.7677186 -2.2124965
-2.6555958 -2.730995

decoder.0.bias f4 [18]
00000000: 7e59 c8bb 0857 85c0 cf51 9fc0 2d60 dac0
00000010: 1653 20c0 ad55 7340 e3c1 84c0 bc6c 6ac0
00000020: 28e2 b1c0 3d1b c7c0 2a07 903d 9204 a1c0
00000030: fd8b 7cc0 2072 9ac0 59ff d8c0 5971 90c0
00000040: be30 a0c0 4261 f6c0
-0.006114184 -4.166874 -4.9787364 -6.82424 -2.5050712 3.8021042 -4.148668 -3.6628866
-5.558857 -6.222075 0.070326164 -5.031808 -3.9460442 -4.8264313 -6.7811704 -4.5138364
-5.00595 -7.6993723

decoder.2.weight f4 [128, 18]
00000000: e4f7 49bd 41a6 6dba 34fd 4dbc a69d 9bba
00000010: 5c5a 24bd 510c 94bc 3485 3dbc 3132 1abc
00000020: 83e3 afbc 5963 46bc 42dc 1abc 0ec3 c4ba
00000030: 2867 46bd a16b 71bc bd7b b9bb 94bd f5bb
00000040: ae48 f6bb 9c00 e9bb 9eef 2d9a c54a 2783
00000050: a013 2883 da0e 2783 ffa7 3391 9c46 2883
00000060: d720 2783 2290 2703 4de8 4d87 040c 2883
00000070: 9a09 2783 ac28 2883 2389 2783 03a5 2783
00000080: 76b5 2703 f819 bb92 992d 2783 345a 2703
00000090: 66cc c2bd 3fa8 1fbd afb0 9cbd 1b2a 39bc
000000a0: a6b9 dabd b482 34be a022 58bd 9185 38bd
000000b0: 6757 0fbe 1fd4 023e 90b1 ff3d 0948 3d3d
000000c0: 30e1 efbd c15d 13bd b103 f5bc 5ff1 cabd
000000d0: db56 97bd 9de0 15bd ea61 43b3 2e27 2883
000000e0: 631a 2903 001c 2703 1cf8 2a03 1f5e 86ae
000000f0: b384 abb3 087c 2703 cb7c 2a03 4076 a1b3
00000100: c141 56b3 c3e3 97b3 930c 2a03 4ae0 2883
00000110: 4fc7 2a83 7df8 4cb3 fe2c 2b83 4f38 2b03
00000120: 0c7e a2b0 5897 10a6 c4e7 b49c 4019 2883
00000130: 493d 90ad 37ab eea7 cba4 95a0 7849 2783
00000140: 34c7 a0aa 45f3 0da4 4c62 9ca5 ec99 84a7
00000150: 5821 9c98 a34a 2883 2f11 2783 5e6f e1ad
00000160: 7ba8 389e de05 2783 68c2 cdbd f929 32bd
00000170: 532c 9abd 2cf7 d1bc cc13 11be fc8e 0ebe
00000180: e4ae 81bc f603 90bd 4042 39be dbfc 50bd
00000190: 1a6a bcbd 245b adbb 98ef 0cbe 6acd c3bd
000001a0: 1fef 82bd fada 3ebe 3903 07be 8170 45bd
000001b0: 67c3 cb3c 3bb4 08be d4da d5bc cecc a1bc
000001c0: a69e 0fbe b143 2cbe c41e 623e 5fc8 b7bc
000001d0: 1343 f8bd 1b91 f93d c3bf 133e 2c47 b53d
000001e0: f3bc b43d 00c7 c8bb bfcd 43bc fe95 69bd
000001f0: 53a7 bdbd 36ba f8bb fecc 93ab b4a7 2e86
00000200: d2a9 98a3 9148 9586 e1cb 22a9 97af 03a5
00000210: fa16 a79d df5e ed9f f3de 8ea5 8543 659e
00000220: fa29 17a0 9f8e 1b91 9b10 a8a9 c5fb ee9e
00000230: 9db9 5998 b7a4 8f9c 06bf 9a9a ba25 8399
00000240: bbe9 d4bd 9453 ffbc 385a 9bbd a799 eebc
00000250: c6b7 24be 7839 25be 584b 5d3d bbdd 40bd
00000260: 1ecb 3fbe 38e0 ec3d b3d9 c93d d811 8b3c
00000270: 2263 c1bd f6a7 93bd e110 09bd 4b21 e5bd
00000280: f205 9cbd abe5 29bd b63e 0fc1 3181 96c0
00000290: 4bc7 2fbe b9fe 21bf 28e1 0bc1 f6c5 0040
000002a0: 1fab ecc0 6eed 713e ab24 1cc0 3d95 62c0
000002b0: 58bf 74c1 a96f bdc0 9a2f 233f 7541 e33e
000002c0: 5160 833e d14f afc0 3696 bcbe 1151 ce3d
000002d0: 4662 15ac ced8 f19d c2c0 a690 a940 2783
000002e0: 87d1 00a8 a63f 5ea0 3e86 4096 ac80 2783
000002f0: e996 0da4 a071 269b 70f6 419d 94e2 e09f
00000300: d5b7 0c8a 88b5 2783 736d 2783 1b94 78a8
00000310: 5ff2 e092 1eb7 2783 2ab5 a2bd 281f 95b8
00000320: 685c 19bc 7295 62bb abf4 87bb 39e2 6dbd
00000330: 9be8 a2bd 3552 b3bb d507 2dbc 65e2 6fbd
00000340: f65d 9abd 8f34 7fbd a0d7 6ebc 6dcf 11bc
00000350: 3673 10bc 68d3 50bd 28fa 20bb 71f5 9cbb
00000360: 7f5c a43c 38a4 79bc 7162 4dbd dbf8 e8bb
00000370: e2eb b4bd f4f3 e1bd 59e4 9f3d d5d3 c8bc
00000380: eeb2 b0bd 3e08 033e 50e2 b23d 60fa 273e
00000390: 7b7b aebd efe7 a1bc d739 97bc 9287 09bd
000003a0: 75a4 75bd 4ad2 96bc 2d40 8cb0 07e4 d9a5
000003b0: cd82 769c 12d3 2783 2cb3 72ad 370f c0a7
000003c0: 8425 51a0 eecc 2783 7569 81aa 3d14 d2a3
000003d0: c531 71a5 bc21 4ca7 ccf8 4e98 ced9 2783
000003e0: 6183 2783 6e70 bdad b490 019e 9ac3 2783
000003f0: 6973 9fbe f2e5 22be ea2b ddbd 6cd0 eebb
-0.049308673 -0.0009065606 -0.012572575 -0.0011872544 -0.040125236 -0.01807228 -0.011567403 -0.009411381
-0.02147079 -0.012108647 -0.009451928 -0.0015011744 -0.04843822 -0.014735133 -0.0056605027 -0.007499406
-0.0075159883 -0.0071106683 -3.5969123e-23 -4.916272e-37 -4.939329e-37 -4.909394e-37 -1.4172378e-28 -4.945182e-37
-4.9114587e-37 4.9242346e-37 -1.5490753e-34 -4.9384556e-37 -4.908791e-37 -4.941745e-37 -4.9234314e-37 -4.9266313e-37
4.9285196e-37 -1.1807761e-27 -4.9129233e-37 4.9180437e-37 -0.09511642 -0.03897881 -0.07650887 -0.011301543
-0.10679941 -0.17627984 -0.052767396 -0.045049254 -0.13998185 0.1277623 0.12485039 0.046211276
-0.11712873 -0.035978083 -0.029908987 -0.09909319 -0.07389613 -0.03659116 -4.5491028e-08 -4.941574e-37
4.9694927e-37 4.910903e-37 5.0243326e-37 -6.110334e-11 -7.986946e-08 4.921927e-37 5.0101765e-37 -7.518656e-08
-4.988556e-08 -7.072915e-08 4.9972944e-37 -4.9628234e-37 -5.0187305e-37 -4.772345e-08 -5.030403e-37 5.0317023e-37
-1.1822876e-09 -5.0165145e-16 -1.1971311e-21 -4.939975e-37 -1.639812e-11 -6.62439e-15 -2.5350633e-19 -4.9161227e-37
-2.8559934e-13 -3.078056e-17 -2.7128295e-16 -3.6804242e-15 -4.0358723e-24 -4.945644e-37 -4.9096615e-37 -2.5628995e-11
-9.77572e-21 -4.9083624e-37 -0.10046846 -0.04349706 -0.075279854 -0.025630556 -0.14167708 -0.13921732
-0.015830465 -0.070320055 -0.18091679 -0.05102239 -0.09199925 -0.005290406 -0.13763273 -0.09560664
-0.06393265 -0.1863822 -0.13184823 -0.048202995 0.024873449 -0.13350002 -0.026105322 -0.019750979
-0.14025363 -0.16822697 0.22082049 -0.022434412 -0.121221684 0.1218588 0.1442862 0.088514656
0.08825102 -0.0061272383 -0.011950909 -0.05702781 -0.0926043 -0.0075905574 -1.0501875e-12 -3.2848972e-35
-1.6551795e-17 -5.61542e-35 -3.6148063e-14 -1.1421931e-16 -4.422829e-21 -1.00530355e-19 -2.478415e-16 -1.2137122e-20
-1.2804086e-19 -1.2271293e-28 -7.463579e-14 -2.530336e-20 -2.8140303e-24 -9.505524e-22 -6.400152e-23 -1.356032e-23
-0.10396143 -0.031167783 -0.07585567 -0.029126002 -0.16085729 -0.16135204 0.05402693 -0.04708646
-0.18729827 0.11566204 0.09855976 0.016976282 -0.09442736 -0.072097704 -0.033463363 -0.11187991
-0.076183215 -0.041478794 -8.95281 -4.7032704 -0.17165868 -0.632793 -8.74247 2.0120826
-7.395889 0.23625728 -2.439738 -3.5403588 -15.296715 -5.9198804 0.6374451 0.44385877
0.2565942 -5.478493 -0.36833352 0.10074056 -2.1228726e-12 -6.401634e-21 -6.5772446e-29 -4.9151115e-37
-7.150861e-15 -1.8825191e-19 -1.5551996e-25 -4.9224597e-37 -3.0702327e-17 -1.3767912e-22 -2.5670743e-21 -9.524253e-20
-6.77533e-33 -4.9285277e-37 -4.920253e-37 -1.3798881e-14 -1.41961365e-27 -4.9287097e-37 -0.079447106 -7.110677e-05
-0.00936041 -0.003457394 -0.0041490397 -0.05807707 -0.07954522 -0.0054724463 -0.010560949 -0.058565516
-0.07537453 -0.062305983 -0.014577776 -0.008899552 -0.008816531 -0.050982863 -0.0024563167 -0.004790001
0.020063637 -0.015236907 -0.05014271 -0.007109744 -0.088340536 -0.110328585 0.07807226 -0.024515072
-0.08627878 0.12796113 0.08734572 0.16404104 -0.08519646 -0.019763915 -0.018460197 -0.033576556
-0.05997129 -0.01841082 -1.020458e-09 -3.7798017e-16 -8.156363e-22 -4.9319186e-37 -1.37958915e-11 -5.33072e-15
-1.7715401e-19 -4.9312137e-37 -2.298818e-13 -2.2776817e-17 -2.092028e-16 -2.8328975e-15 -2.6750486e-24 -4.9326917e-37
-4.9227705e-37 -2.1536741e-11 -6.859127e-21 -4.930143e-37 -0.31142738 -0.1590803 -0.107993916 -0.0072880294

decoder.2.bias f4 [128]
00000000: 1df2 0fbe 955b 64ad bbbf 0abe d384 d2b3
00000010: 7a52 02b8 f40d 96be c92c 00bd e510 ecb0
00000020: 21f4 eebd 8737 27bf 1d97 c5b5 9d5a bcbd
00000030: 1228 08be 973c f9b7 b46c d8be f721 7fbf
00000040: b33c 5abe 447b 219b 1fc4 94ba 3c9d 02bd
00000050: 71f0 e0b6 aa08 81bf 087f 10c0 0246 04bd
00000060: eb1f 16be 961b 97bd 82e1 35bc c89a 69bd
00000070: 1225 3db1 cca0 b5ba 7373 d8be adeb 3dbe
00000080: a256 5ba6 d286 1bbb 08d4 93b9 146b bbbd
00000090: 1dc7 d5b9 4d6a e68f 5f5a cbb7 8b10 66bd
000000a0: 7f0e 76b9 ee3b 373f 3ad0 4fbf 0545 8abf
000000b0: 3b50 0db3 f61a 0892 d4f7 71c0 f7a6 4abd
000000c0: cfae 57b2 9dc2 8dbe daa7 37bd 59ee d1be
000000d0: a26d cbbc d3f6 a6bd 5ef5 71b9 2398 5cbb
000000e0: 5c20 87be e0a7 2bb2 d961 a7ba a754 883f
000000f0: 077b 32be bab1 81bd 16d0 bcb7 85f5 9dbe
00000100: 4ef1 b2ba a2d3 9fba 7f99 a6ad fe6a 1c8f
00000110: 4df7 ddbf f449 b1bf 7e58 3ebd daab f4bf
00000120: 9eaa f8b7 b6c6 6ebc 7672 d6bd a180 4abe
00000130: 71f7 25be a187 0cbb 502b 0dbe 3532 ebbe
00000140: 2d0d ccbd 41a6 9bae 2853 4fbc be6e 8cbe
00000150: d0c5 95ac 4f09 3cc0 b0bd d5bd 80b4 618e
00000160: ad2d 33bb d8b7 c5a5 6bab e3bf e9ab 82b8
00000170: 2018 37b8 faf6 a7a6 b9e3 fcaa 3983 30be
00000180: 483d 7dbe 0d38 8eaf b040 08c0 d92a e2bd
00000190: 5f00 4cc0 d086 b6a3 ae68 32b7 1272 f6ab
000001a0: 79fc 7baa 9163 ecbd 7c39 3dbf 597f 20bf
000001b0: 6925 47b7 a418 17be b251 b5ba 5a21 f6b0
000001c0: 9bea 0dbe 86a7 49be c750 eabc 0b2b c6bd
000001d0: 814a 1ebc cee3 c1b5 6c34 f2bf 6a4e 7fbe
000001e0: 7c54 9bbd 72c6 3e97 3061 eebd 52fc 31b6
000001f0: 4203 e1bd fd4b d1bd 9e1d bfbd 4097 7bbe
-0.14057203 -1.2980635e-11 -0.13549702 -9.8030476e-08 -3.1071228e-05 -0.2930752 -0.03129271 -1.7176062e-09
-0.11667658 -0.65319103 -1.4721624e-06 -0.091969706 -0.13296536 -2.9711327e-05 -0.42270434 -0.996612
-0.21312217 -1.3357437e-22 -0.0011349953 -0.03188823 -6.7037113e-06 -1.0080769 -2.2577534 -0.032293327
-0.14660613 -0.073783085 -0.0111011285 -0.057032377 -2.7524192e-09 -0.0013857125 -0.4227558 -0.18546934
-7.60983e-16 -0.0023731482 -0.00028196 -0.09151283 -0.00040774877 -2.2720697e-29 -2.4241568e-05 -0.05616812
-0.00023465788 0.7157582 -0.81177104 -1.0802313 -3.290209e-08 -4.2947265e-28 -3.7807512 -0.049475636
-1.2554394e-08 -0.2768754 -0.04483781 -0.41002157 -0.02483255 -0.08152547 -0.00023074957 -0.0033660016
-0.26391876 -9.99168e-09 -0.001277025 1.0650834 -0.17429744 -0.06332727 -2.2508244e-05 -0.3085138
-0.0013652237 -0.0012193809 -1.8940181e-11 -7.712e-30 -1.7341095 -1.3850694 -0.04647111 -1.9114945
-2.9643354e-05 -0.014573744 -0.104710504 -0.1977563 -0.16207673 -0.0021443146 -0.13786054 -0.45936742
-0.099634506 -7.0781166e-11 -0.012654103 -0.2742824 -4.2567963e-12 -2.9380682 -0.10436571 -2.7820299e-30
-0.0027340457 -3.429863e-16 -1.7786688 -6.230904e-05 -4.3653068e-05 -1.1654896e-15 -4.4922207e-13 -0.17237557
-0.24730408 -2.5869476e-10 -2.1289482 -0.11043329 -3.1875226 -1.9789575e-17 -1.0633999e-05 -1.7511012e-12
-2.2380872e-13 -0.11542428 -0.7391584 -0.6269432 -1.18700345e-05 -0.14755493 -0.0013833551 -1.7908335e-09
-0.13859026 -0.19692811 -0.02860297 -0.096761785 -0.009661318 -1.444592e-06 -1.8922248 -0.24932256
-0.075844735 -6.1642784e-25 -0.11639631 -2.6521925e-06 -0.109869495 -0.10219572 -0.09331821 -0.24569416

decoder.4.weight f4 [784, 128]
00000000: eedc 2783 1c88 2b03 c8d8 6bb1 3181 2883
00000010: a37f 2783 eb70 2783 842e f2b8 c5b4 e6aa
00000020: 2a50 d1af f654 12bf 16f7 2703 0398 dbad
00000030: 4fd3 9ab8 80c0 2703 aa07 2983 da30 2b83
00000040: 9849 01a6 b895 a1ae 9db5 6dba dc56 2a83
00000050: 4003 aaa2 a92e 91bf 41e2 1dbb bf43 a6b1
00000060: ef47 e2ba 5be5 2703 a474 65ba d5f7 6db9
00000070: 2ef1 05b9 4f44 2983 620b 2803 3429 2803
00000080: 545f 2803 e802 f5ba a315 0aba efb3 a7b7
00000090: 0dd5 fa9a 8299 2703 fd23 2a83 6076 9ab5
000000a0: a66c 2bbb 41ca 6dbe b24f cdaa c659 2783
000000b0: 0f56 2903 4a79 2803 859a 9a33 3708 c48d
000000c0: c5a9 9eb9 c68c 55b8 eb67 2703 ec7b 0aba
000000d0: d734 2783 4097 2783 c0e9 ebb8 1742 7ab7
000000e0: 166b 6b8d 8157 dbad 7c3a 7bb6 84af c9bf
000000f0: 639f c2b1 5896 2783 266b 2a03 075f 4b14
00000100: 7d5e 2a03 a34e 2903 de2f 2a83 caef 2803
00000110: 9b47 4ea1 ba15 2983 ed8a 2703 3435 eebc
00000120: 116c 2b03 88df b9b7 0611 2783 b977 bca2
00000130: 3ba6 b7a1 0e6a 09b9 042f 2883 047f 2b83
00000140: aa50 2783 b7c6 2703 ef7f acbf e60d 9e92
00000150: 00cf 2a03 e0c6 2803 f94e 31a9 4afc 2703
00000160: 127f 81b4 97d4 2a83 19a8 2883 e7fa a7ba
00000170: 50b5 2a83 a684 2b03 f7f4 34b6 2c90 2a83
00000180: da0a 8a96 a6ac 2983 334e 7fbb c408 2703
00000190: 2e50 05bf 9117 2b83 3faf e0b3 8b16 2883
000001a0: 0203 2703 9d9e 2783 765d 2883 3971 2783
000001b0: 4edd 2a83 89da f5b6 29e5 2903 bed4 9fac
000001c0: 4cc7 98b4 3bd8 16ba 0fc5 2a03 7f1f 2883
000001d0: 8e26 2783 78ee 2703 e199 2883 00f8 2683
000001e0: 6230 8ab9 d05a 2703 34f1 04bb 1617 2983
000001f0: ec18 2783 6568 2803 9151 2783 69e7 2783
00000200: 531c 2783 424d 2b03 413d 26ae 1852 2883
00000210: 9e26 2703 5504 2703 e916 84b7 59a4 48a6
00000220: 5457 17ac ccd6 12bf ea7a 2703 f766 cba9
00000230: a858 27b7 683b 2b03 107c 2903 f2ad 2883
00000240: bfa2 a59f 6790 d2aa 949d 60b9 5b6f 2783
00000250: e8bd c79b fbc9 91bf de5b 8fba cdf5 abae
00000260: abfa 10ba 5b0d 2783 55a1 6db9 8c35 18b8
00000270: 37b7 9bb7 d686 2a83 ceb5 2803 4c66 2a03
00000280: 862c 2883 9ea7 01ba de80 eeb8 2f27 e8b5
00000290: f34d fe91 401f 2803 32a0 2803 86b0 5fb3
000002a0: d8a9 6fba 0bc9 6ebe 56b3 efa9 8f93 2783
000002b0: cce7 2783 f80a 2803 45a2 9c33 80e4 2783
000002c0: af92 7ab8 6ffb bab6 a811 2803 6007 eab8
000002d0: 034f 2703 d241 2783 f65a 86b7 7e26 c4b5
000002e0: 0d74 2783 8e16 e4a9 07d6 87b4 5bb5 cabf
000002f0: c71b c2ae dcb0 4583 08c3 2783 e51a 1b94
00000300: 851e 2a03 d4ad 2a83 49e9 2783 0e20 2883
00000310: e537 a5a0 c095 3f83 fff7 2903 53c9 79bc
00000320: 92b9 2783 b665 f7b5 eb1f 2803 ac1b a19b
00000330: 0394 fc99 b0a8 b3b7 4e38 2703 5233 2783
00000340: f4fa 2603 e56e 2883 424d adbf 7658 8f03
00000350: ac77 2903 7959 2803 447e 08a4 a3bc 2803
00000360: 4d00 41b2 40df 2983 2857 2783 e89e c3b9
00000370: 1e4d 2b03 cbcb 2983 9b4a 55b4 4011 2b83
00000380: d30a 078a ca75 2783 6cff 2abb e6f8 2603
00000390: 7e59 05bf 05f2 2883 c021 2db1 016b 2703
000003a0: 0128 2803 a92e 2703 f078 2883 1b12 2783
000003b0: ff8c 2983 14be 8bb5 4e37 2903 866b 80a8
000003c0: a1bf 37b2 f48d ebb8 b6cc 2a83 12a4 2783
000003d0: cebc 2783 a0f9 2683 309c 2783 cbd8 2903
000003e0: 3a26 4db8 79b7 2783 1a1d 09ba 7370 2a83
000003f0: 3d65 2703 e8d9 2783 ba11 2803 a70d 2783
-4.9330504e-37 5.040863e-37 -3.4320227e-09 -4.9519067e-37 -4.922341e-37 -4.9206513e-37 -0.000115481234 -4.0981641e-13
-3.8073839e-10 -0.5716089 4.936053e-37 -2.4964924e-11 -7.3826515e-05 4.929787e-37 -4.9673434e-37 -5.0308462e-37
-4.4855604e-16 -7.348028e-11 -0.0009067895 -5.005822e-37 -4.6082033e-18 -1.1342365 -0.0024091157 -4.8389377e-09
-0.001726387 4.9340176e-37 -0.00087530375 -0.00022694406 -0.00012773715 -4.974305e-37 4.938383e-37 4.941806e-37
4.9480194e-37 -0.0018692883 -0.00052675063 -1.999174e-05 -1.0374178e-22 4.9253107e-37 -4.9999822e-37 -1.1508346e-06
-0.0026157289 -0.23221685 -3.6470615e-13 -4.9179944e-37 4.9763427e-37 4.9509996e-37 7.199291e-08 -1.208141e-30
-0.00030262597 -5.0914263e-05 4.919618e-37 -0.0005282748 -4.9137546e-37 -4.9250516e-37 -0.000112492125 -1.4916549e-05
-7.2543866e-31 -2.4936277e-11 -3.7435957e-06 -1.5756688 -5.6642633e-09 -4.9249475e-37 5.008151e-37 1.0267622e-26
5.0066977e-37 4.9754907e-37 -5.001346e-37 4.9646027e-37 -6.9890284e-19 -4.9689577e-37 4.923637e-37 -0.029078104
5.0376438e-37 -2.2157808e-05 -4.909643e-37 -5.1084263e-18 -1.2444563e-18 -0.00013104847 -4.9424734e-37 -5.039819e-37
-4.9169487e-37 4.9305003e-37 -1.3476542 -9.974628e-28 5.0196134e-37 4.959906e-37 -3.9370393e-14 4.9366503e-37
-2.4120578e-07 -5.020255e-37 -4.956373e-37 -0.0012815864 -5.0166646e-37 5.0404656e-37 -2.6964678e-06 -5.012401e-37
-2.230195e-25 -4.9862827e-37 -0.0038956522 4.908695e-37 -0.5207547 -5.0279436e-37 -1.046269e-07 -4.939664e-37
4.908034e-37 -4.925897e-37 -4.947805e-37 -4.9206862e-37 -5.0212555e-37 -7.32701e-06 4.99277e-37 -4.542671e-12
-2.8457214e-07 -0.0005754267 5.018472e-37 -4.940692e-37 -4.9121148e-37 4.935064e-37 -4.9547407e-37 -4.9067706e-37
-0.0002635746 4.9181137e-37 -0.002028537 -4.9691138e-37 -4.91055e-37 4.94906e-37 -4.9170523e-37 -4.9342535e-37
-4.9109404e-37 5.034107e-37 -3.7798435e-11 -4.9465e-37 4.912122e-37 4.908186e-37 -1.5746295e-05 -6.961167e-16
-2.1506867e-12 -0.57359004 4.9217988e-37 -9.0328725e-14 -9.974618e-06 5.032058e-37 4.9807053e-37 -4.957044e-37
-7.014946e-20 -3.7403693e-13 -0.00021421007 -4.920472e-37 -3.3044512e-22 -1.1389765 -0.0010937413 -7.819843e-11
-0.00055305165 -4.909222e-37 -0.00022662182 -3.6289493e-05 -1.8562756e-05 -5.0113294e-37 4.9579464e-37 5.007594e-37
-4.9421873e-37 -0.00049459364 -0.00011372728 -1.7296751e-06 -4.0122174e-28 4.9406636e-37 4.955466e-37 -5.208178e-08
-0.0009142435 -0.2331888 -1.0644842e-13 -4.924628e-37 -4.934298e-37 4.9383354e-37 7.293833e-08 -4.9339194e-37
-5.9741255e-05 -5.5725027e-06 4.939103e-37 -0.00011159363 4.916759e-37 -4.9152447e-37 -1.6016402e-05 -1.4614341e-06
-4.921011e-37 -1.01291466e-13 -2.5301435e-07 -1.5836595 -8.827033e-11 -5.809612e-37 -4.9300774e-37 -7.830804e-27
4.9993545e-37 -5.0158055e-37 -4.9344687e-37 -4.940756e-37 -2.7989075e-19 -5.630176e-37 4.994932e-37 -0.015245753
-4.9289913e-37 -1.8432536e-06 4.9407403e-37 -2.6653098e-22 -2.611597e-23 -2.1417014e-05 4.9141524e-37 -4.91358e-37
4.9071096e-37 -4.9498063e-37 -1.3539202 8.425094e-37 4.9802013e-37 4.9473472e-37 -2.959725e-17 4.9587307e-37
-1.1234147e-08 -4.9920915e-37 -4.917694e-37 -0.00037311693 5.034091e-37 -4.989858e-37 -1.9864312e-07 -5.0272186e-37
-6.5020494e-33 -4.9212104e-37 -0.0026092185 4.9068737e-37 -0.5208968 -4.9648588e-37 -2.5193998e-09 4.9199724e-37
4.9416685e-37 4.9130452e-37 -4.950959e-37 -4.9097673e-37 -4.982649e-37 -1.0411627e-06 4.9728123e-37 -1.4257486e-14
-1.0695573e-08 -0.00011232114 -5.0193507e-37 -4.9265233e-37 -4.9293626e-37 -4.906957e-37 -4.9256184e-37 4.9913502e-37
-4.891141e-05 -4.9287505e-37 -0.0005230472 -5.0087595e-37 4.9193105e-37 -4.9327033e-37 4.939111e-37 -4.909256e-37

decoder.4.bias f4 [784]
00000000: 768c 65c0 87d8 64c0 df92 65c0 9f83 65c0
00000010: ce58 65c0 6d51 65c0 f51b 65c0 d474 65c0
00000020: 5fa8 65c0 67c6 65c0 c7af 65c0 207d 65c0
00000030: fbbc 65c0 8300 66c0 bc57 65c0 0c90 65c0
00000040: ea84 65c0 aae9 65c0 0a84 65c0 de9e 65c0
00000050: a46e 65c0 5d26 65c0 64aa 65c0 d941 65c0
00000060: 4f12 65c0 348c 65c0 a837 65c0 97bc 65c0
00000070: f6c2 65c0 3714 65c0 3696 65c0 6281 65c0
00000080: e5c9 65c0 455b 65c0 c8b3 5dc0 07ca 5bc0
00000090: c605 63c0 57da 65c0 985d 63c0 a3c7 58c0
000000a0: ae62 4ec0 45df 4cc0 4974 3cc0 aed2 35c0
000000b0: a852 5bc0 3d22 73c0 efd7 64c0 3ffc 6ac0
000000c0: 7f72 69c0 6d43 69c0 8f2c 67c0 2add 65c0
000000d0: d8b8 65c0 8137 65c0 a797 65c0 0a54 65c0
000000e0: 9ee3 65c0 ee9d 65c0 3379 65c0 53bd 65c0
000000f0: 04b6 65c0 a079 64c0 39ee 5fc0 c60c 5cc0
00000100: 2fe5 4ec0 628d 46c0 f915 38c0 621b 0cc0
00000110: ee44 d6bf 6a34 5ebf 3b01 67bc 1dbd a1bf
00000120: 610a 4ac0 2b46 69c0 2f0a 9bc0 51fa cbc0
00000130: a3b6 6ac0 39e1 2ac0 6851 64c0 8599 6ec0
00000140: 1774 59c0 75ab 65c0 926f 65c0 232f 65c0
00000150: 6a87 65c0 4d5d 65c0 7b02 65c0 a7d7 65c0
00000160: e707 66c0 12d4 5fc0 c55e 61c0 767c 49c0
00000170: 288d 4bc0 9af4 32c0 1e26 10c0 849c c3bf
00000180: 1a20 5fbf 9b47 013f 9c88 6b3f 3b2b 19be
00000190: 23e8 2dc0 dcff 79c0 3402 9ec0 7981 a1c0
000001a0: 8e0b 09c0 1417 96bf 6021 9abf 5549 f9bf
000001b0: 9de5 2ec0 9cbf 64c0 dca0 65c0 f136 65c0
000001c0: 38bc 65c0 e787 65c0 b7db 63c0 64a5 65c0
000001d0: a0f8 64c0 f70f 5fc0 4d2b 55c0 b89d 42c0
000001e0: a800 3fc0 4911 22c0 e7fa e4bf f75f 97bf
000001f0: 60cc 173d e6df 983f c5dc 7f3f dc82 83bf
00000200: c1d2 5bc0 c9f9 a6c0 5abf 9cc0 842b 1fc0
00000210: 73e2 39be 13e6 d9be ec13 8abf 32e8 ddbf
00000220: a05d 27c0 4260 60c0 73df 65c0 2f74 65c0
00000230: 4979 65c0 7e9a 65c0 2ced 5ec0 e47d 65c0
00000240: 48bd 64c0 27b6 5ac0 7dcb 49c0 c43a 40c0
00000250: f971 2dc0 3a3e 13c0 517f c4bf 4929 27bf
00000260: 4ad8 773f 9d06 a23f e218 193f c3a2 1bc0
00000270: ca77 8ec0 1d84 b1c0 0e57 34c0 7397 ed3d
00000280: 6270 813e 5d64 0dbf 6fdc c5bf 1886 ebbf
00000290: 696e 26c0 2ed7 5cc0 7e63 65c0 9eab 65c0
000002a0: e5a5 65c0 ac57 65c0 a1bc 65c0 76ae 65c0
000002b0: 3a6b 65c0 a40b 61c0 c381 44c0 c167 3ac0
000002c0: c11c 22c0 52be 02c0 873f 99bf 59f2 7b3e
000002d0: b32b bf3f 661d a23f a8ff 95be 978b 56c0
000002e0: 01e9 bcc0 4723 79c0 1e88 0cbf 597f ae3e
000002f0: f462 2bbe 11c5 9bbf 9b6e 00c0 b82c 23c0
00000300: 94e1 47c0 588e 55c0 ceac 65c0 432c 65c0
00000310: 4792 65c0 443e 65c0 0c83 65c0 3ca5 65c0
00000320: 58c0 64c0 9eb1 56c0 14b7 3dc0 d65d 2fc0
00000330: e33a 17c0 08f5 e7bf e115 05bf 8cb0 893f
00000340: 5a04 843f 2756 ba3f b429 81bf deac 9dc0
00000350: c209 97c0 253e b8bf 8c20 a0be 2bdf 1cbf
00000360: 4e3d b2bf a264 0ec0 6186 26c0 9fc4 3bc0
00000370: 21ff 44c0 182b 55c0 d2af 65c0 7c55 65c0
00000380: 0ee6 64c0 cc5e 65c0 1ec9 65c0 7fa2 65c0
00000390: 8286 65c0 6481 52c0 4a23 3cc0 d0f5 1bc0
000003a0: feb5 19c0 e2ad b6bf abe5 e03e c0fe 8f3f
000003b0: 3943 b83f 8193 f73e 024c 4dc0 d9d9 99c0
000003c0: c33a e2bf 9a41 b1be 4705 73bf 9b85 e8bf
000003d0: a7ba 13c0 3293 35c0 27c1 4bc0 f8a0 51c0
000003e0: 7400 59c0 9f84 62c0 047c 65c0 a3c8 65c0
000003f0: a729 65c0 bca7 65c0 c67f 65c0 73aa 65c0
-3.586698 -3.5757158 -3.5870893 -3.5861585 -3.5835452 -3.5830948 -3.5798314 -3.5852556
-3.5884016 -3.5902345 -3.5888536 -3.585762 -3.5896595 -3.5937812 -3.58348 -3.586917
-3.5862374 -3.5923867 -3.586184 -3.5878215 -3.584878 -3.5804665 -3.5885248 -3.582144
-3.5792425 -3.5866823 -3.581522 -3.5896356 -3.5900245 -3.5793588 -3.5872931 -3.586022
-3.5904477 -3.5836957 -3.464098 -3.4342058 -3.5472274 -3.5914514 -3.5525875 -3.3871849
-3.224773 -3.2011273 -2.9445975 -2.8409839 -3.42692 -3.7989647 -3.5756795 -3.6716459
-3.6476133 -3.6447403 -3.6120946 -3.5916238 -3.589407 -3.5815127 -3.5873811 -3.5832543
-3.5920177 -3.5877643 -3.5855224 -3.5896804 -3.5892344 -3.5699234 -3.498915 -3.4382796
-3.2327383 -3.1023793 -2.876341 -2.1891713 -1.6739786 -0.8679873 -0.014099414 -1.2635838
-3.1568835 -3.6449077 -4.844993 -6.374306 -3.6673973 -2.6699965 -3.5674686 -3.72812
-3.3977106 -3.58859 -3.5849347 -3.581002 -3.58639 -3.5838196 -3.5782764 -3.5912874
-3.5942323 -3.4973187 -3.5214093 -3.1482215 -3.1804905 -2.7961793 -2.2523265 -1.528214
-0.8715836 0.50499886 0.92005324 -0.14957897 -2.7172935 -3.9062414 -4.937769 -5.047055
-2.1413302 -1.1725793 -1.2041435 -1.9475504 -2.7327645 -3.574195 -3.587943 -3.5814784
-3.589613 -3.5864198 -3.5602853 -3.5882196 -3.5776749 -3.4853494 -3.3307679 -3.0408764
-2.984415 -2.532305 -1.7889069 -1.1826161 0.03706014 1.1943328 0.9994624 -1.027431
-3.4347384 -5.2179914 -4.8983583 -2.487031 -0.1815279 -0.42558345 -1.078733 -1.7336485
-2.6150894 -3.505875 -3.5917633 -3.5852163 -3.5855277 -3.5875545 -3.4832258 -3.5858088
-3.5740528 -3.4173677 -3.153045 -3.0035868 -2.7100813 -2.300673 -1.5351354 -0.6529737
0.96814406 1.2658268 0.59803593 -2.4318092 -4.4521227 -5.547377 -2.8178134 0.11601152
0.25281054 -0.5523127 -1.5457896 -1.8400297 -2.600489 -3.4506335 -3.5841975 -3.5885997
-3.5882504 -3.583476 -3.589638 -3.5887733 -3.5846696 -3.5163355 -3.07042 -2.9125826
-2.533005 -2.0428662 -1.1972512 0.24604167 1.4935211 1.2665222 -0.29296613 -3.35227
-5.903443 -3.8927782 -0.548952 0.34081534 -0.16736966 -1.2169515 -2.0067508 -2.5496044
-3.1231432 -3.336813 -3.5886722 -3.5808265 -3.587053 -3.5819254 -3.5861235 -3.58821
-3.5742397 -3.354591 -2.9642992 -2.7401023 -2.3629692 -1.8121653 -0.5198651 1.0757003
1.0313828 1.4557542 -1.0090852 -4.927352 -4.719941 -1.4393965 -0.3127483 -0.6127803
-1.3924959 -2.2248921 -2.6019518 -2.9338758 -3.0780718 -3.3307552 -3.5888562 -3.5833426
-3.5765414 -3.583911 -3.5904002 -3.588043 -3.5863347 -3.2891474 -2.9396539 -2.4368782
-2.401733 -1.4271815 0.43925223 1.1249619 1.4395515 0.48354724 -3.2077641 -4.8078427
-1.7674183 -0.34620363 -0.9492993 -1.8165773 -2.3082674 -2.837109 -3.183664 -3.2754498
-3.3906527 -3.5393445 -3.5856943 -3.590371 -3.5806673 -3.5883627 -3.5859237 -3.5885284
